UnityApp_Exported.Android/unityLibrary/src/main/assets/available.tflite (tflite, 18564 bytes, 5 tensors)

dense/bias f4 [64]
000000 11 4f 35 3d 44 8a 90 3d b7 bf 0e be 72 40 d4 3c
       0.044264857 0.07057622 -0.13940321 0.025909636
000010 b2 e8 47 bd f7 48 0f bd fb 09 8a be 2f 1c 2c be
       -0.0488059 -0.034981694 -0.2696074 -0.16807626
000020 ed 36 b5 3c ea 0f 76 bd 94 5e 5c be ca 1a 29 3d
       0.022120917 -0.06007377 -0.21520454 0.041285314
000030 a7 8c 80 be 58 b9 dc bd 65 03 6d 3d 8e ba 4c be
       -0.2510731 -0.10777539 0.057864565 -0.1999304
000040 f2 ef 29 bd eb ab cf bd d0 b3 84 3d dd 45 ab 3c
       -0.041488595 -0.101402126 0.06479609 0.020907337
000050 91 6e 56 bd cc 2b 51 be 68 9d ee b9 72 6a dc 3d
       -0.052351538 -0.20426863 -0.00045512174 0.1076249
000060 05 8c 83 bd 0a 20 cf 3d 39 91 6b bd c7 b9 00 3e
       -0.06423191 0.10113533 -0.057511542 0.12570868
000070 40 23 5f bd 54 f9 83 bd 32 37 2f be e8 d3 80 3d
       -0.054476976 -0.0644404 -0.17110899 0.06290418
000080 a7 8a 7f ba a8 e3 ba bd 2f d7 08 bd ac 3e 93 bd
       -0.0009748139 -0.09125453 -0.03340834 -0.07189688
000090 3c 63 6b 3d 45 94 b3 ba 9f 6f 97 3d 00 2f a5 3d
       0.057467684 -0.0013700804 0.07394337 0.08065605
0000a0 f6 84 40 3d 5f ca a4 bd b6 73 32 3e 24 f2 68 3d
       0.0470018 -0.08046412 0.17426953 0.05687155
0000b0 11 c2 3f be 93 8b 6d 3d e7 fe 04 be fa d9 1d be
       -0.18726374 0.057994436 -0.12987863 -0.15415183
0000c0 43 30 af bd 87 8f 57 bb 46 b6 92 ba b0 7c 77 3d
       -0.08554127 -0.0032891945 -0.0011193238 0.060421646
0000d0 eb 08 b3 3c da ff 7d 3d a1 1d 34 bd dc d0 13 3d
       0.021854838 0.062011577 -0.04397357 0.036087856
0000e0 2c ad 26 be bb 8a 2b 3d 72 02 c7 bd 19 60 6f 3c
       -0.16276997 0.04188035 -0.09717263 0.014610314
0000f0 33 40 02 be ce 26 6e bd 93 51 05 3d c5 73 25 3d
       -0.12719803 -0.058142476 0.0325485 0.04039361

std.constant f4 [1, 62]
000000 72 70 8a 4e 0e 43 4d 4c 98 a3 c2 4e 1b f8 88 4c
       1.1613125e+09 5.3808184e+07 1.6327506e+09 7.181129e+07
000010 db eb d8 3d 45 1b 89 4c 0e 43 4d 4c 98 a3 c2 4e
       0.10591861 7.1883304e+07 5.3808184e+07 1.6327506e+09
000020 a7 83 a5 4e 98 a3 c2 4e 23 28 a8 4a 02 60 04 4a
       1.3884343e+09 1.6327506e+09 5.5101615e+06 2.1688325e+06
000030 9d 5d c7 4a d7 b0 55 4b ff 47 38 4e 76 f7 8f 4d
       6.5328145e+06 1.4004439e+07 7.729315e+08 3.0191994e+08
000040 44 c9 04 4e 7e 00 8a 4d b1 90 85 43 22 db 43 4c
       5.5694566e+08 2.89411e+08 267.1304 5.134247e+07
000050 e9 ef 63 4e a7 83 a5 4e 5e 3f 38 51 0b 88 f6 4a
       9.560377e+08 1.3884343e+09 4.945857e+10 8.0783415e+06
000060 3e f4 f7 4d 63 d9 1c 4d 18 53 ec 4d e0 84 66 4b
       5.1999738e+08 1.6446827e+08 4.9560858e+08 1.5107296e+07
000070 08 30 96 4d 94 1c 9b 4d 98 a3 c2 4e 5d 1d 44 4c
       3.1496627e+08 3.2529267e+08 1.6327506e+09 5.1410292e+07
000080 95 bf d6 33 d1 5d c5 4b ff b9 c9 4b fe 5b 57 4c
       1e-07 2.5869218e+07 2.6440702e+07 5.645516e+07
000090 dc 56 98 4a a9 d4 99 4c 43 b6 9b 4b ad a9 28 4e
       4.991854e+06 8.065159e+07 2.0409478e+07 7.0742304e+08
0000a0 78 14 4c 4e 92 7e 43 4c 2a c5 bb 51 29 e3 7a 4d
       8.559734e+08 5.124769e+07 1.0080834e+11 2.6307445e+08
0000b0 f2 c8 eb 49 95 bf d6 33 ee 92 1e 41 db 34 50 4e
       1.9315502e+06 1e-07 9.9108715 8.732812e+08
0000c0 de 30 9d 46 ae 4f 19 4c 95 bf d6 33 4b 25 2a 4c
       20120.434 4.0189624e+07 1e-07 4.4602668e+07
0000d0 72 e2 98 48 38 00 b9 4e 95 bf d6 33 7a ad 18 4c
       313107.56 1.5518996e+09 1e-07 4.002353e+07
0000e0 aa db b1 4e cc ae ca 49 93 2f b2 4a 29 d4 10 40
       1.4919816e+09 1.6603775e+06 5.8387935e+06 2.2629492
0000f0 97 9f 73 4e b4 74 13 43
       1.0218306e+09 147.45587

std.constant1 f4 [1, 62]
000000 ce 88 02 4f da 95 59 4d 2a 27 6f 4f a3 be f3 4d
       2.1900037e+09 2.2815478e+08 4.0123213e+09 5.1116963e+08
000010 f0 ea 39 3c d5 1f 73 4d da 95 59 4d 2a 27 6f 4f
       0.011347517 2.5493435e+08 2.2815478e+08 4.0123213e+09
000020 9b 20 4d 4f 2a 27 6f 4f ac c2 2d 4b 31 a3 61 4a
       3.441466e+09 4.0123213e+09 1.1387564e+07 3.6968442e+06
000030 d2 68 64 4b 8f f9 e7 4b 1e bd cc 4e 64 8f 1a 4e
       1.4969042e+07 3.0405406e+07 1.717473e+09 6.482721e+08
000040 d9 ea 7e 4e 2d 7d 60 4e f0 ea b9 40 cf 2d 7a 4c
       1.06920096e+09 9.41575e+08 5.809929 6.5582908e+07
000050 41 b2 ed 4e 9b 20 4d 4f b9 4c ee 51 83 ac 67 4a
       1.9939411e+09 3.441466e+09 1.2793618e+11 3.7957448e+06
000060 fc ea 95 4e 37 c8 8f 4d dd f1 63 4e 86 d6 27 4c
       1.2576026e+09 3.015329e+08 9.560697e+08 4.399772e+07
000070 6e 3b 36 4e da d6 36 4d 2a 27 6f 4f 2e 3a da 4b
       7.64337e+08 1.9172086e+08 4.0123213e+09 2.8603484e+07
000080 00 00 00 00 d8 a0 86 4c c0 6c 86 4c 6a 8f 03 4d
       0.0 7.0584e+07 7.047731e+07 1.3795088e+08
000090 44 59 62 4a ca c5 46 4d e3 15 8c 4b 03 c9 89 4e
       3.708497e+06 2.084282e+08 1.8361286e+07 1.155826e+09
0000a0 13 1a ab 4e 66 f3 e6 4b fd 87 4c 52 38 07 15 4d
       1.4353064e+09 3.027118e+07 2.1961371e+11 1.562674e+08
0000b0 8c 15 12 48 00 00 00 00 a8 b2 b4 41 96 b0 36 4e
       149590.19 0.0 22.587234 7.662565e+08
0000c0 e9 bd d5 46 1b 53 cb 4c 00 00 00 00 1b d7 3a 4d
       27358.955 1.06600664e+08 0.0 1.9591621e+08
0000d0 88 f5 5d 49 a3 66 32 4f 00 00 00 00 8e 89 ca 4c
       909144.5 2.9930708e+09 0.0 1.0618789e+08
0000e0 b8 b8 27 4f 9f 54 f5 4a 0f e1 e0 4a 03 ce ce 41
       2.8139008e+09 8.0389915e+06 7.3688395e+06 25.850592
0000f0 b7 ff 5f 4e 4b 88 58 43
       9.395194e+08 216.5324

std.constant2 f4 [64, 62]
000000 ad 4d 90 bd d7 4b 91 bd 49 ea 2a 3d e2 a1 8f be
       -0.070460655 -0.070945434 0.041727338 -0.28053194
000010 45 a2 e7 bd c3 0a e4 3b f8 5e 14 3e c9 bb 02 3d
       -0.11310247 0.0069592907 0.14489353 0.031917367
000020 ac 48 19 3e 92 12 af bd 1c 3d 86 3e a5 45 6b 3b
       0.14969128 -0.08548464 0.26218498 0.0035899666
000030 1e 4f 67 3e a3 a7 90 3d 47 b1 3f 3e ff fd 41 be
       0.22588775 0.07063224 0.1871997 -0.18944548
000040 a3 27 41 3d 2c f3 9b 3d de 2b 4e 3e 51 2c 79 3e
       0.04715694 0.07614741 0.20133922 0.24333312
000050 4b c9 42 be 42 07 34 3e 5b 27 55 bd f7 a4 47 be
       -0.190221 0.17580894 -0.052039485 -0.19496523
000060 8c b1 d1 3d 28 28 4d 3e 24 ae b1 3d 54 ed fb 3b
       0.102389425 0.2003485 0.08675793 0.007688204
000070 1d 8a 61 3d dc 1f 48 3e 67 6a 9e 3c a7 e7 6b 3c
       0.055063356 0.19543403 0.019337846 0.014398492
000080 22 72 82 3d c1 6f dc bd 55 42 2a bd 45 6d 18 bd
       0.06369425 -0.10763503 -0.041567165 -0.037213583
000090 04 cf 6f 3e 76 4a 51 be 5a 80 f3 3d 7e 0c 52 bd
       0.23418814 -0.20438561 0.118897155 -0.051281445
0000a0 82 c2 06 3a 34 af 6a 3e 09 8b 15 3e 7f e3 46 be
       0.0005140678 0.22918397 0.14603819 -0.1942272
0000b0 5c c3 ae bd ce 95 84 bd 29 c0 1f be 99 ec c1 bd
       -0.085333556 -0.064738855 -0.15600647 -0.094689555
0000c0 41 1e 18 3e 2f f6 03 3d 28 92 16 be c1 09 bf be
       0.14855291 0.0322172 -0.14704192 -0.3731213
0000d0 a9 c6 5d 3e 69 53 0c be 93 f0 dd bd 1d a1 03 be
       0.21657814 -0.13703693 -0.108369015 -0.12854429
0000e0 c9 d9 ef 3c 7c 45 82 3d d0 60 a3 3d 5a 7a f6 3d
       0.029278653 0.06360909 0.0797745 0.120350555
0000f0 f6 a0 09 bc e0 62 7d 3c 8e 65 cd bd ff 7b 7b bc
       -0.0084001925 0.015465468 -0.10029136 -0.015349387
000100 bc 95 3e be 50 11 cb bd 66 9f 04 3d 4c f1 96 bd
       -0.18611807 -0.099154115 0.032378577 -0.073702425
000110 35 c4 9f bd cf 2e 3a bd 41 1e 71 bd b2 70 31 3e
       -0.078010954 -0.045454796 -0.058866743 0.17328146
000120 92 5a 85 3e 0e d0 e5 3d 3f 9f 30 3e 90 c1 91 bd
       0.26045662 0.11221324 0.17248248 -0.07116997
000130 22 e7 43 bd 46 4e bc 3d 00 e8 68 be d6 5e c8 bd
       -0.047827847 0.09194617 -0.22744751 -0.097837135
000140 8a 53 88 bd 69 f2 13 3e d7 02 24 bd 5d ac 0e bd
       -0.06656559 0.14447941 -0.04004177 -0.034832347
000150 b0 a0 1c 3e fa 25 c0 be 77 0d 05 3d fd 29 4f bd
       0.15295672 -0.37528974 0.032483544 -0.050577153
000160 ff 33 46 be 08 c6 ef bc 49 8d bc 3d 18 3f 86 3e
       -0.19355772 -0.029269233 0.092066355 0.26220012
000170 53 1e 25 bd 72 c3 c4 3d 30 f1 3f be bf a0 0d 3e
       -0.040312123 0.09607591 -0.1874435 0.13830851
000180 dd 36 cb bd d8 fa ee bc 00 8b 21 bd 82 8d 0b 3e
       -0.09922574 -0.029172346 -0.0394392 0.136282
000190 cf dd 07 be a0 d9 05 be f6 1a 63 be c7 e8 ed 3d
       -0.13268207 -0.13071299 -0.22178254 0.116166644
0001a0 5f 11 2c 3d d8 45 77 be 0f ca 60 be 96 99 f0 3d
       0.042008754 -0.24147737 -0.21952079 0.11748044
0001b0 c2 4e 34 bd 03 29 5d be 9f 0c bc 3e 7b 80 06 3e
       -0.04402042 -0.21597676 0.3672838 0.13134949
0001c0 1a 80 de 3d ac e4 a5 3d 7b 79 ff 3d 3e 2b 20 be
       0.10864277 0.08100256 0.124743424 -0.15641496
0001d0 8e af 44 be df 3c d9 bd ac db 15 3e 77 9a e4 3d
       -0.19207594 -0.10607313 0.1463458 0.11162274
0001e0 e4 b9 6a bd 8d a1 00 be 15 11 80 3d ba 9e a3 3d
       -0.057306185 -0.12561627 0.06253258 0.07989259
0001f0 3b 2d 66 be c2 48 20 be 99 23 51 be 31 b3 43 be
       -0.22478192 -0.15652755 -0.20423736 -0.19111325
000200 db 35 d0 3d 8f 29 6b 3d e2 99 24 be bf d4 40 be
       0.10166522 0.05741268 -0.16074327 -0.18831156
000210 c8 f5 d4 3d 8b 87 35 3d 43 21 84 3e 7d 69 ae 3d
       0.103984416 0.044318717 0.25806627 0.08516214
000220 23 9e 10 3c e9 ff 05 3e cf 99 ba bc 01 10 0f be
       0.008826765 0.13085903 -0.02277842 -0.13970949
000230 a0 00 73 3d 20 90 36 3e ad a2 82 3c c3 1b 64 be
       0.059326768 0.17828417 0.01594671 -0.22276215
000240 69 1c 0d bd e0 1b 95 bd cb d4 d1 bc a8 5e ad bc
       -0.034450922 -0.07280707 -0.025614163 -0.0211633
000250 a9 54 24 3e 06 5f 1f 3b a8 4a 8b 3d c7 e2 65 3c
       0.1604792 0.0024318113 0.06801349 0.014031119
000260 05 7f 9d be b2 14 d2 3d bd f0 51 3e c7 b3 37 bc
       -0.3076097 0.102578536 0.2050199 -0.011212296
000270 4a f5 15 be 00 9d d2 3d 95 d6 2c 3e 9f 98 6a 3e
       -0.14644352 0.102838516 0.16878732 0.22909783
000280 53 00 44 be 69 e3 1a be ed f5 95 3e 43 79 4e bd
       -0.19140749 -0.15125813 0.2928919 -0.050408613
000290 c9 8b 29 be 8a f0 1a 3c 52 ba 7a bd 78 af ab 3d
       -0.1655723 0.009456763 -0.061212845 0.083830774
0002a0 06 1c be be a1 43 4f 3e e9 bd 0d 3e 83 0a 85 bd
       -0.37130755 0.20240642 0.13841976 -0.064961456
0002b0 75 a6 92 3d 2d 44 7d 3e 40 89 4a bc 60 bb dd 3d
       0.071606554 0.24733038 -0.0123618245 0.108267546
0002c0 2c d2 35 3e 3c 6e 49 bc fa 19 d7 3d ab a9 dc 3d
       0.17755955 -0.012294348 0.105030015 0.10774549
0002d0 56 ba 08 be f2 77 b0 bd 3c 63 0a bd 8f 40 b0 3d
       -0.13352332 -0.08616628 -0.033786044 0.086060636
0002e0 ab bf 2c 3e e8 70 41 3e de 9f b9 bd 3a 91 09 bd
       0.1686999 0.18890727 -0.09063695 -0.033585764
0002f0 a2 be 47 be e1 5b 3d 3e fa d5 a3 bd 1a 0e 39 bd
       -0.19506314 0.1849208 -0.07999797 -0.045179464
000300 41 20 ab bc bb 54 7c bd 68 d9 e8 3c a4 b0 43 be
       -0.020889403 -0.061604243 0.02842398 -0.19110352
000310 b9 ca 01 3e db 59 11 be 7f ad 33 be 18 16 65 3d
       0.12674989 -0.14194433 -0.17546652 0.055929273
000320 0c b1 b7 3d 81 47 da 3d 7b 87 e0 3d e8 dc 9d 3d
       0.08969316 0.106581695 0.10963341 0.0770815
000330 cd c7 35 3e 4b e8 9e 3d 89 3e 6d 3e 3b f5 ff bd
       0.17751999 0.0775915 0.23168387 -0.12497946
000340 3d 4e 38 bd 10 4b 2e 3d d0 8d 3d be 99 a0 3a bd
       -0.04499649 0.042552054 -0.18511128 -0.045563314
000350 2a bf f2 3d c5 13 12 be 0d 49 54 3e 04 7e 3c be
       0.11852868 -0.14265354 0.20730992 -0.18407446
000360 3d 6c b1 bc 7a 84 d6 3d 4a 77 d6 3d 4e 69 be 3c
       -0.021658057 0.10474487 0.10471971 0.023243573
000370 52 5f f5 bc 7b 3b 09 3e db 5f d3 3d b1 c7 15 be
       -0.029952679 0.13401596 0.10321017 -0.14626957
000380 e5 6e 2a bd a2 0c c5 bd 61 9d 80 be 4d a3 35 3e
       -0.041609664 -0.0962155 -0.2512007 0.17738076
000390 84 06 ac bd b4 2c 4a 3e 7f c7 11 3d 54 fc de bd
       -0.0839968 0.19743615 0.035590645 -0.108879715
0003a0 ba 63 2a be 34 2d 0f be 60 b2 be bd ad f9 53 be
       -0.16639605 -0.13982087 -0.09311366 -0.20700713
0003b0 6e 51 bd bd 7f ea bf bd 8d 49 8d 3e 0e d2 2b be
       -0.09244047 -0.093708985 0.27595177 -0.16779348
0003c0 2c fe ad bd 73 c8 ae bd 96 b5 39 3d a5 2a 1d be
       -0.08495745 -0.085343264 0.04533919 -0.15348299
0003d0 17 52 82 be d4 b1 b7 bc 6c 1c f7 3b bd 36 07 3e
       -0.25453255 -0.022423662 0.00754123 0.13204475
0003e0 c0 9b a3 be 2f 82 93 bd 68 59 08 be a4 c8 1b 3e
       -0.31954765 -0.07202565 -0.13315356 0.15213257
0003f0 b8 ac 2e 3d 54 1b 96 3d 3f 0a 1f 3e ea 9a 65 be
       0.042645186 0.07329431 0.15531252 -0.22422376

std.constant3 f4 [1, 64]
000000 30 cb 68 be 90 54 8b 3e 2f 62 3c be 52 0d 05 3e
       -0.2273376 0.27212954 -0.18396829 0.12993363
000010 7e 96 81 be bc df 62 be e3 b2 48 be 4f f7 61 be
       -0.2531013 -0.2215566 -0.1959949 -0.22066997
000020 7f bd b8 be 90 2e 56 3c b3 1a 5c 3e 70 f2 88 3d
       -0.36082074 0.013072625 0.2149456 0.06686866
000030 8c a4 8b be 59 52 6e be bf a3 3b 3e ee 8b 27 be
       -0.27273977 -0.232736 0.18324183 -0.16361973
000040 ac cf 7f bd e8 ff 06 3d c9 2a 82 3e 56 1d 96 3e
       -0.06245391 0.032958895 0.25423267 0.29319257
000050 1a 10 3f be 2d 6d a1 bd 49 4b 76 3e 07 5b 41 3e
       -0.18658486 -0.07882152 0.24052157 0.1888238
000060 6d fd 0d 3e e0 ce 1b 3e 70 35 c0 3d bc 17 2d 3e
       0.13866206 0.15215635 0.093851924 0.16903585
000070 d0 c9 3b be 2e 5c 6e be f2 f0 05 be 42 34 8c 3e
       -0.18338704 -0.23277351 -0.13080195 0.2738362
000080 44 c1 fd 3d fa b3 9e be 98 fb bb bd 9b 3c 15 be
       0.12390378 -0.30996686 -0.09178847 -0.145739
000090 ed a0 5a 3e 98 13 08 3e bf 95 f0 3d a7 ef 85 3e
       0.21350451 0.13288724 0.11747312 0.26159403
0000a0 8c 3d 6c 3e 20 6c 92 be cf 4c 10 3e 02 1b 24 3e
       0.23070353 -0.28598118 0.140918 0.16025928
0000b0 d7 48 05 bd 43 91 fb 3d ed b7 1c be d6 63 86 be
       -0.03254017 0.12283566 -0.15304537 -0.26248044
0000c0 21 4f f4 bd f3 4b 89 3d 4d 13 30 3e 0b 44 42 3e
       -0.11929155 0.06703939 0.17194863 0.18971269
0000d0 83 ac 8c 3e 21 18 00 3e d2 fb c2 3d 1e 0b 37 be
       0.27475366 0.12509204 0.09520687 -0.17875335
0000e0 1a 08 04 be 7c dc ec 3d db 12 2e 3e 2d fa 6a 3e
       -0.12893716 0.115654916 0.1699938 0.22946997
0000f0 7d 3b ed bd 5c 8c 09 3c 9d 40 87 3e 9f 56 e5 3d
       -0.11583612 0.008395281 0.26416484 0.11198162
