UnityApp_Exported.Android/unityLibrary/src/main/assets/oom.tflite (tflite, 5628 bytes, 5 tensors)

dense/bias f4 [64]
5.2797937 2.9540305 -3.5914223 2.2907887 -0.13147043 4.979768 7.155537 -4.0080986
2.8850682 -3.848223 8.825208 4.301992 8.230602 -1.3704424 4.319342 5.0703797
0.6141956 8.330045 7.107342 -5.727886 -1.2330775 5.2301917 0.5728193 6.334124
2.134229 5.0650697 5.0410852 4.666601 4.7957387 -1.977013 5.140984 -0.3518358
5.761553 8.195432 2.664142 5.5266 8.261877 -1.7942526 5.8598967 6.1405797
3.8085077 6.186246 10.295539 0.3181442 7.3005457 5.295883 0.44965774 0.7682545
0.1977901 0.2891697 0.79995424 -0.8391024 3.0013003 -3.2852783 6.320653 -1.1315219
1.5918795 5.351909 2.4821131 -3.8678992 5.9501615 6.2462626 8.36342 -1.0379685
00000000: 12f4 a840 d60e 3d40 ddd9 65c0 489c 1240
00000010: 2fa0 06be 425a 9f40 29fa e440 5842 80c0
00000020: f5a4 3840 4949 76c0 0d34 0d41 eba9 8940
00000030: 8cb0 0341 a86a afbf 0d38 8a40 8d40 a240
00000040: ec3b 1d3f dd47 0541 586f e340 d84a b7c0
00000050: 7cd5 9dbf bb5d a740 49a4 123f 25b1 ca40
00000060: 3597 0840 0d15 a240 9250 a140 cc54 9540
00000070: b176 9940 c30e fdbf f182 a440 d223 b4be
00000080: a45e b840 7d20 0341 4d81 2a40 e8d9 b040
00000090: a630 0441 12aa e5bf 4684 bb40 a17f c440
000000a0: 97be 7340 baf5 c540 87ba 2441 cce3 a23e
000000b0: 129e e940 e077 a940 8a39 e63e 54ac 443f
000000c0: 7d89 4a3e 0d0e 943e cdc9 4c3f 6acf 56bf
000000d0: 4e15 4040 0042 52c0 ca42 ca40 b6d5 90bf
000000e0: b5c2 cb3f d742 ab40 f1da 1e40 a98b 77c0
000000f0: b967 be40 62e1 c740 91d0 0541 27dc 84bf

std.constant f4 [1, 13]
2.4986963 8.952695e+07 0.19028455 8.298742e+07 6.152765e+07 8.936237e+08 6.1184444e+07 4.089705e+12
1.0878579e+09 1.0481237e+08 1.7749129e+09 16502.951 728324.5
00000000: a4ea 1f40 55c2 aa4c f4d9 423e 3449 9e4c
00000010: 98b5 6a4c 760e 554e 6f66 694c 5a0d 6e54
00000020: caae 814e eae9 c74c 0b96 d34e e7ed 8046
00000030: 48d0 3149

std.constant1 f4 [1, 13]
26.764357 4.9772685e+08 0.037623763 2.4343574e+08 4.178728e+07 1.5235496e+09 4.325998e+07 7.0037864e+11
1.8080392e+09 2.3008155e+08 3.7903327e+09 27893.354 8.323891e+06
00000000: 671d d641 ac55 ed4d 601b 1a3d 8e28 684d
00000010: e467 1f4c 0b9f b54e 1306 254c d211 2353
00000020: fa88 d74e 416c 5b4d e3eb 614f b5ea d946
00000030: 6606 fe4a

std.constant2 f4 [64, 13]
-0.76714134 0.578646 -5.284097 -0.22954987 -0.18668224 -0.86224407 -0.16800323 0.4122637
3.608533 0.51101935 1.7814163 -0.4920101 5.2323065 -0.04069346 3.5568197 -2.8178737
-1.887241 0.30724117 3.269626 0.5400551 0.74195725 2.6420076 -0.9810203 1.1525872
-1.1727135 2.7115037 2.4726443 3.429634 1.6219296 5.3236823 0.8170029 4.420906
0.4316842 -0.24804948 0.641944 3.7539208 1.6564795 3.8522184 -0.46917138 2.1593058
-2.9986796 0.6235419 2.69852 1.3315873 -3.9573176 1.360667 1.1104133 -1.4011457
-1.2773715 2.2157621 0.5768244 -0.8860304 -2.1763687 1.0289432 -0.19496062 -0.8064008
-0.15676907 -2.2485466 -0.530357 0.49962372 0.9989895 1.339857 1.9839209 0.20110038
0.06179729 -0.29416305 1.2479296 -5.580618 -0.87809104 0.02564238 -1.4035227 -0.031329226
0.31942615 3.427661 0.38080674 1.7332217 -1.9258181 4.840969 -0.12327523 -0.17642172
-7.2944813 0.6310766 -0.00010112114 0.28882897 -0.47718704 -0.320434 4.3167415 -0.8623915
2.9906044 0.28477833 7.163677 5.397074 0.01468079 -0.14757292 -1.6964912 -1.8029732
-8.368918 0.20091332 -15.340985 12.196582 -8.936005 8.039502 -2.1642156 -1.6206893
-0.031105323 -0.16374744 0.42925844 -0.77198803 0.08668273 -0.8897087 0.2015393 -0.21269533
0.93288416 -0.09565292 1.0919677 -0.21517536 -0.18900883 6.954773 2.5118444 0.20548026
0.15630051 0.55560756 3.009384 1.3833146 1.6540775 4.56436 -1.803023 0.08443038
-15.703116 -0.20885296 -2.3829687 1.687611 0.171852 -0.272848 -0.3263199 -3.1176677
-0.52175194 -1.4663827 4.941499 1.5920506 3.894922 -2.4177213 9.325441 5.864886
-4.8736086 -2.0224166 6.5660124 3.3366978 -5.044978 3.1462972 1.2912524 1.0213697
-3.911814 0.5070371 -2.959427 0.99940115 -0.48817554 3.3776782 -4.654 -1.0116842
-1.9837018 -5.886652 -2.5134969 -3.0239956 4.190307 0.71249557 2.3132331 0.4851941
8.493022 -0.08406191 -1.2580982 0.22231334 2.2722979 -1.9922018 1.2179519 -2.856383
0.44634852 -0.16856724 -2.0163295 0.5186217 0.07034083 -0.4552183 3.2577024 -3.4429333
2.4817345 2.698196 1.3403032 -7.598986 -0.3716861 -1.4570452 5.1881742 0.66866666
-2.6473498 5.2175145 4.5993824 3.2826555 -0.7306941 0.7106495 0.6682281 1.9071413
-4.5332055 2.0042136 1.1630865 0.7494124 -0.9865252 1.7429565 -1.7050687 5.2636476
-0.26786485 0.03977187 -0.08254961 -0.51441276 0.2393878 0.6664722 -0.4183166 0.09129138
0.64900315 0.03547309 -0.6799649 -0.03994273 0.05127222 1.0215482 -2.3818204 0.25697747
-1.161348 -0.84067553 -4.254577 -0.59860075 -0.21031478 3.0072558 -0.5360346 2.7636302
-1.6545011 -0.9616632 -2.2314806 -0.37287706 -2.367103 0.04486677 -0.07965748 -1.6492834
-0.17246337 0.6778562 2.422687 1.3672419 3.445502 -1.6817477 -0.792419 -3.4828885
-5.5631194 1.3540002 -1.5369825 1.637525 -0.093529835 -1.0738227 -1.5772572 1.3452059
00000000: 6063 44bf 2522 143f 5317 a9c0 1f0f 6bbe
00000010: a129 3fbe 07bc 5cbf 0a09 2cbe 3a14 d33e
00000020: 34f2 6640 2ad2 023f 7305 e43f bfe8 fbbe
00000030: 0e6f a740 2fae 26bd efa2 6340 0b58 34c0
00000040: 1d91 f1bf b74e 9d3e 8d41 5140 0d41 0a3f
00000050: e9f0 3d3f a716 2940 2524 7bbf fa87 933f
00000060: 7a1b 96bf 4789 2d40 ce3f 1e40 207f 5b40
00000070: 649b cf3f 9b5b aa40 1a27 513f 1078 8d40
00000080: b605 dd3e af00 7ebe 7156 243f 3d40 7040
00000090: 8507 d43f bf8a 7640 3b37 f0be 1132 0a40
000000a0: 5eea 3fc0 71a0 1f3f 8db4 2c40 7471 aa3f
000000b0: b144 7dc0 562a ae3f 0622 8e3f be58 b3bf
000000c0: e980 a3bf 0ccf 0d40 c4aa 133f e3d2 62bf
000000d0: a049 0bc0 69b4 833f c2a3 47be 4870 4ebf
000000e0: 1288 20be 30e8 0fc0 7ac5 07bf aece ff3e
000000f0: c7bd 7f3f 6f80 ab3f 1ff1 fd3f 42ed 4d3e
00000100: 281f 7d3d 8a9c 96be 28bc 9f3f 6c94 b2c0
00000110: 93ca 60bf f80f d23c a2a6 b3bf 1353 00bd
00000120: d38b a33e cc5e 5b40 1af9 c23e 35da dd3f
00000130: 3581 f6bf 38e9 9a40 b977 fcbd e5a7 34be
00000140: 646c e9c0 3c8e 213f 0011 d4b8 64e1 933e
00000150: dc51 f4be ed0f a4be bf22 8a40 b0c5 5cbf
00000160: 1066 3f40 77ce 913e d83c e540 d5b4 ac40
00000170: b287 703c 5b1d 17be a026 d9bf d3c7 e6bf
00000180: 17e7 05c1 39bc 4d3e ad74 75c1 3325 4341
00000190: e0f9 0ec1 cda1 0041 8282 0ac0 bf72 cfbf
000001a0: 97d0 febc 69ad 27be c3c7 db3e 02a1 45bf
000001b0: b786 b13d f3c3 63bf 5160 4e3e cecc 59be
000001c0: 7fd1 6e3f aee5 c3bd 99c5 8b3f ee56 5cbe
000001d0: 888b 41be 808d de40 0fc2 2040 6b69 523e
000001e0: 3e0d 203e 4c3c 0e3f bf99 4040 7410 b13f
000001f0: d0b8 d33f 3d0f 9240 75c9 e6bf d6e9 ac3d
00000200: f73f 7bc1 8ddd 55be 8f82 18c0 a303 d83f
00000210: f8f9 2f3e bcb2 8bbe 6713 a7be de87 47c0
00000220: 8991 05bf 6eb2 bbbf c320 9e40 50c8 cb3f
00000230: 6746 7940 f2bb 1ac0 0235 1541 25ad bb40
00000240: 9af4 9bc0 466f 01c0 c61c d240 758c 5540
00000250: 7670 a1c0 ef5c 4940 c247 a53f 3ebc 823f
00000260: 295b 7ac0 2fcd 013f 4167 3dc0 c1d8 7f3f
00000270: 25f2 f9be e12b 5840 91ed 94c0 de7e 81bf
00000280: f1e9 fdbf 745f bcc0 22dd 20c0 2589 41c0
00000290: ff16 8640 1c66 363f 030c 1440 5c6b f83e
000002a0: 6be3 0741 a728 acbd 5d09 a1bf 1ca6 633e
000002b0: 546d 1140 7800 ffbf d9e5 9b3f fbce 36c0
000002c0: cb87 e43e e49c 2cbe 8b0b 01c0 64c4 043f
000002d0: da0e 903d 5f12 e9be 327e 5040 0559 5cc0
000002e0: bdd4 1e40 3eaf 2c40 0e8f ab3f e52a f3c0
000002f0: a44d bebe 7580 babf 8605 a640 bd2d 2b3f
00000300: 2e6e 29c0 e1f5 a640 242e 9340 0717 5240
00000310: c50e 3bbf 20ed 353f ff10 2b3f 351d f43f
00000320: 0510 91c0 0945 0040 05e0 943f 7ed9 3f3f
00000330: ea8c 7cbf 3319 df3f b13f dabf cd6f a840
00000340: 9525 89be d4e7 223d c50f a9bd 8eb0 03bf
00000350: 1322 753e ec9d 2a3f 982d d6be faf6 ba3d
00000360: 1225 263f 3b4c 113d 2e12 2ebf fd9a 23bd
00000370: d202 523d 17c2 823f bf6f 18c0 8d92 833e
00000380: 0da7 94bf 8336 57bf 7f25 88c0 e63d 19bf
00000390: c25c 57be e176 4040 9039 09bf 51df 3040
000003a0: b1c6 d3bf 8f2f 76bf 94d0 0ec0 bee9 bebe
000003b0: 9e7e 17c0 38c6 373d 7623 a3bd b81b d3bf
000003c0: 3d9a 30be fc87 2d3f 4e0d 1b40 c801 af3f
000003d0: 1b83 5c40 8243 d7bf f9db 4abf a5e7 5ec0
000003e0: 1305 b2c0 e14f ad3f d8bb c4bf 6b9a d13f
000003f0: 928c bfbd 0673 89bf 90e3 c9bf b52f ac3f

std.constant3 f4 [1, 64]
0.7173939 0.64151895 -2.0632694 0.3440303 0.18424144 0.67302024 1.7372849 -7.2547016
0.10258327 3.2666342 2.1674821 2.812565 3.6073601 0.25279903 2.5226486 0.7957495
-0.017530054 1.3189862 0.7810668 2.5904987 -0.10555424 1.433653 -0.02728569 3.006938
0.30968416 3.4369583 0.60014224 0.59099525 0.7346259 -0.1547748 1.7201433 -0.0034902724
4.0484905 2.4729304 -6.027038 0.74967057 1.2693334 -0.67550695 3.2391238 1.5586112
1.4333404 0.66830534 3.0921052 0.0021602903 3.5802054 3.575063 1.6183776 0.25047582
0.017100107 0.8931846 0.15127742 -0.13601798 0.9908035 -1.3774759 1.3597066 0.19698258
2.2990246 2.2219868 0.11604734 -2.018616 1.9829514 1.1585134 3.0850365 0.23225507
00000000: 20a7 373f 963a 243f 9b0c 04c0 bd24 b03e
00000010: caa9 3c3e 0e4b 2c3f 5a5f de3f 8426 e8c0
00000020: 2d17 d23d 8910 5140 07b8 0a40 1101 3440
00000030: fdde 6640 e06e 813e 1373 2140 3db6 4b3f
00000040: 309b 8fbc 8ad4 a83f fef3 473f bbca 2540
00000050: d22c d8bd f181 b73f 3d86 dfbc ac71 4040
00000060: ec8e 9e3e 20f7 5b40 eca2 193f 774b 173f
00000070: 7110 3c3f 497d 1ebe a82d dc3f 0ebd 64bb
00000080: 3c8d 8140 7e44 1e40 7fdd c0c0 69ea 3f3f
00000090: 8479 a23f 06ee 2cbf ce4d 4f40 9280 c73f
000000a0: b377 b73f 0f16 2b3f 0de5 4540 a893 0d3b
000000b0: 1622 6540 d5cd 6440 ff26 cf3f 5e3e 803e
000000c0: 8615 8c3c bfa7 643f 78e8 1a3e 4c48 0bbe
000000d0: 4ca5 7d3f 2151 b0bf de0a ae3f cdb5 493e
000000e0: 3823 1340 0835 0e40 3aaa ed3d 0131 01c0
000000f0: 5ad1 fd3f 2b4a 943f 3d71 4540 46d4 6d3e
